deep_emotion2-200-128-0.005.pt (torch_old, 271339 bytes, 24 tensors)

conv1.weight f4 [10, 1, 3, 3]
00000000: 95a7 44be ffa0 06bf f521 f33d bb1b 3c3e
00000010: 03f6 f03d 3952 b13e 64b4 c33d 918b 4cbe
00000020: b9fa 553e 5691 f5bd 6b3c 4ebd 4c64 843e
00000030: 8a36 14bf c290 97be 9c4e bd3e 013a 84bd
00000040: e214 573e fd17 993e ebae 40be dc7f e93e
00000050: 912e c83e ce33 1abf 0410 3d3d a527 bf39
00000060: 9a35 fabd 6782 d6bd de50 d63d 3fa0 d6be
00000070: 8747 803e de34 013e e78d 9cbd 7216 bebe
00000080: 4236 913e e3b9 f23e e995 cebe 15fe c5bd
00000090: 12c8 c1bd 74a5 c6be 5617 5fbe 2829 babc
000000a0: 2d5b 093f 0008 c63e da3d 17bf 1adb e23e
000000b0: d080 35bd f8a1 c8be 05aa 33be 9a56 e53e
000000c0: 1b74 a0be c4c4 783e 234b e83e 0bd9 003e
000000d0: b4fb 16bf 57ce c53d 5119 8ebe 1b98 3bbe
000000e0: e09c a0be 1f23 2bbe 7c95 803e 00fe b5be
000000f0: 335d c63e d89f 993e 5adf b13e d62e 3d3e
00000100: 84ca 98be 4c36 94be 16e4 7f3e 8dd6 3a3d
00000110: e81f ba3e d224 4fbe 2aff 43be 88c7 583e
00000120: 7392 073f 2a2b a73e 85fe ba3e cff7 cfbc
00000130: 89f6 81be 13aa 87bd bd3b debe 8c2b f3be
00000140: de36 eb3c 1f03 72be c95e c1be 707c aa3e
00000150: d8d2 b8be 1151 5abd d149 8abe 67d8 65be
00000160: 5856 ce3e 06fc 013f
-0.19204552 -0.5258941 0.11871711 0.18369953 0.11765673 0.34633043 0.09555891 -0.19975115
0.20896424 -0.11990611 -0.050350588 0.2585777 -0.5789572 -0.2960263 0.36974037 -0.06456376
0.2100406 0.29901114 -0.18816726 0.4560536 0.39098027 -0.602353 0.04615785 0.00036459896
-0.12217255 -0.10474091 0.10464643 -0.41919133 0.2505457 0.12617823 -0.07644253 -0.371265
0.28361708 0.47407445 -0.40348747 -0.09667603 -0.094619885 -0.38798106 -0.21786246 -0.022724703
0.5365475 0.3867798 -0.59078753 0.44307786 -0.0443123 -0.39186072 -0.17545326 0.44792634
-0.3133858 0.2429381 0.45369825 0.12582795 -0.5897782 0.09658497 -0.2775369 -0.18319742
-0.31369686 -0.16712616 0.25114048 -0.3554535 0.3874298 0.30004764 0.34740716 0.18474898
-0.29842007 -0.28947675 0.24989352 0.045614768 0.36352468 -0.2022889 -0.19140306 0.21169865
0.5295784 0.3265012 0.36522308 -0.025386719 -0.25383404 -0.06624236 -0.43404952 -0.4749416
0.028712686 -0.23634003 -0.37767628 0.33298063 -0.3609836 -0.053299967 -0.27009442 -0.22445832
0.4030025 0.5077518

conv1.bias f4 [10]
00000000: 269d 82bc b840 6d3e f2bf bfbc 35f5 60bd
00000010: ff11 f6bd 1fa5 c1be 2930 fb38 ac98 b33d
00000020: 787c 7a3b cda3 5bbe
-0.015944075 0.2316922 -0.023406956 -0.054921348 -0.12015151 -0.3782129 0.00011977583 0.08769354
0.0038221162 -0.21449204

conv2.weight f4 [10, 10, 3, 3]
00000000: f404 3abe 36f6 a0be 3a5f 583e feb7 7c3d
00000010: a7b5 a0be c942 2e3d a6fe 623d 36da 3bbe
00000020: 56b5 1c3e d9df a03e 7264 3abe 5701 37be
00000030: 0b4f a53e 850c 2ebe 46e4 5dbe bc9f 2c3e
00000040: 1fd9 3a3d ed95 943d 9c3a fe3e a2be 0bbe
00000050: 7dd6 9dbd 695d 913e c821 8a3d fdef 1bbc
00000060: 2b00 9bbc 2539 893d f901 a2be 67cf 383e
00000070: 809f 80be 5b25 9d3d de8f 5c3e f715 fabd
00000080: 1b3d c9bd fe7a 823e c3bf 09be b707 81bd
00000090: 99ea 97be 1cb2 453e a0d5 983c 875e dcbe
000000a0: 9ce7 4ebe d2d2 813e 5abb 11bf 842c cfbd
000000b0: 3aa5 373e 9600 1bbf e253 01be 5c63 8ebf
000000c0: 0b92 91be 3053 aa3e e446 a3be 75fa b4be
000000d0: c6c0 413d 8b05 113e bdb2 17bf 317e 093d
000000e0: 159e 4cbe f49c 773d 5bca 3dbe 1eb3 96be
000000f0: dee7 86bd d69d 57be 7a8c 80be 833f 2e3d
00000100: 9496 8d3d 1fc9 183e 34e1 28be e1ec 3b3c
00000110: f4fd 4f3d 8f01 79be 443f a63d 8a42 003e
00000120: ddb2 933e 0220 e6be 0a20 a4be 4df8 343e
00000130: 3973 94be 28c6 febe 6105 2e3e fa8f b43c
00000140: 10cf e4be dc5a b0be bf8c a2bb 6634 9a3d
00000150: eccc 3e3e e61f 03bd 9406 43be b528 cb3e
00000160: 3775 8b3e 221e ccbe 952e 143d 2c75 d4bd
00000170: c25d fc3e ede9 32be 54cd 27be 65ca 0639
00000180: dee4 91be 1062 b0be a21e 37bd a04b 3a3d
00000190: 161f 40bd f9ed 23be c4a4 a13d e92d f0bd
000001a0: 0927 72bd a87e ae3b bca6 95be 09ef e33b
000001b0: 8ab8 f63d 7103 f23d 3160 5e3e 6d55 b33d
000001c0: 5bb0 7a3b 6475 e6bc e066 63be ce6c 66bf
000001d0: c8eb f1be 97d0 bebd 5beb 863e f28c 1c3f
000001e0: 8100 2abe 1671 103e 5333 9d3e efd7 69be
000001f0: de8f 383e 2262 a83e f392 39be 95ce 8cbe
00000200: c069 8f3e efb7 043e 7ede 81be daef 74be
00000210: 568a 1d3f 8369 1cbe da71 0fbf c7a2 2c3d
00000220: c3c5 2dbe fcd6 95be 72b0 f4bd 5cb8 073e
00000230: 90fe d23b 1cda cebe f6f5 8f3d f5f7 99bd
00000240: 6c88 2bbf 018e 3f3d 8a46 18bf 6b52 5fbe
00000250: c951 003d 395e 393e f532 98be f67c 93be
00000260: 9d11 a33c de65 9bbd 2dd7 a3be f71f d7bd
00000270: 9bb4 e73d 5fa8 e4be 7e1b 97be 6d64 0ebe
00000280: 1160 6dbe b86d a23e 60ec a83e 2fb1 413e
00000290: f733 b33e 4632 88bc ba42 b4bc 008d 8dbd
000002a0: 4208 80bd 6a07 abbe f6a6 f53d 5a7b a4be
000002b0: b019 8b3e f1fd 153c b7b6 4fbe 39ac c73d
000002c0: 6ef1 893e b4d5 343c 14d6 163b 46f6 193e
000002d0: 3ffb 4ebc 53d0 6f3e 1e5c d8be 4090 8fbb
000002e0: c01d 8fbe a95a 85be d79e 863d 55be de3d
000002f0: ce05 d53e 1dc2 b5bd 8ed2 c3bd 6d18 e8be
00000300: 1535 a3be 2f3c 7b3c ed27 8a3d 23fe 533e
00000310: dce9 383e 03e9 e03d a2d3 d83d 3fd2 913e
00000320: db25 823e 07c6 593e 7936 1d3e bbb8 6fbe
00000330: fd42 41be 5f82 a9be e60a 8fbe 9aae ce3d
00000340: 68b1 c43d be13 473e 5579 883e 6ddb 8c3e
00000350: 21a0 40be 0be6 243e 51e9 08bf b1b1 5abe
00000360: c5d4 e2be c8c4 3b3d b7bd 053e f20f 1d3c
00000370: c48b d0be b950 61be ede3 b8bd f0eb 953d
00000380: bfc2 4dbd 2048 5abe a62f 2ebe 7a7b 863e
00000390: 6fdb 6c3d 4c2d 13bd 51d5 f4bd 1525 eb3c
000003a0: 09aa 82bd 8bf5 b73e 279f a93e 9c40 9bbd
000003b0: 4f38 473d 1013 ec3c bf8c d2bd c8b4 2abe
000003c0: 8425 153e 858a ecba 09a0 763d 912d b53e
000003d0: 03eb 943e 914e 80be e886 64bd 6422 10be
000003e0: b367 07be d63d 13be 5959 533d 011d 473e
000003f0: 5494 aabe faa8 fd3c 90e9 153d 23d8 873e
-0.18165952 -0.31437844 0.21130076 0.061698906 -0.3138859 0.04254416 0.055418633 -0.1834496
0.15303549 0.31420782 -0.1820238 -0.17871605 0.32286867 -0.16996963 -0.2166911 0.16857809
0.04561722 0.072551586 0.4965409 -0.1364694 -0.07706926 0.2839158 0.067447245 -0.009517667
-0.018920979 0.067003526 -0.3164213 0.18047868 -0.2512169 0.076731406 0.21539256 -0.12211221
-0.09826108 0.2548446 -0.13452058 -0.063002996 -0.2967117 0.19306225 0.018656552 -0.4304087
-0.2020554 0.25356156 -0.569265 -0.101159126 0.17934123 -0.6054777 -0.12629655 -1.1124072
-0.28431734 0.33266592 -0.31890023 -0.35347334 0.047302984 0.1416227 -0.5925711 0.03356761
-0.19982179 0.060452417 -0.18534224 -0.2943353 -0.06587194 -0.21056303 -0.25107175 0.04254104
0.06913486 0.14920472 -0.16492158 0.011470051 0.050779298 -0.24317001 0.08117536 0.12525383
0.288474 -0.44946295 -0.32055694 0.17672844 -0.28994158 -0.49760556 0.1699424 0.02204131
-0.44689226 -0.3444432 -0.004960626 0.075295255 0.18632859 -0.032012843 -0.19045478 0.39679495
0.27237865 -0.3986674 0.036177237 -0.10373911 0.49290282 -0.17472048 -0.1638692 0.00012854634
-0.28494924 -0.34449816 -0.044706948 0.045482278 -0.046904646 -0.16008748 0.07892755 -0.11727507
-0.059119258 0.005325157 -0.2922877 0.0069559854 0.12046917 0.11817063 0.21716382 0.08756528
0.0038252089 -0.028132148 -0.22207212 -0.9000977 -0.472502 -0.09317129 0.26351437 0.61152565
-0.16601755 0.14105639 0.3070322 -0.22836278 0.18023631 0.3288737 -0.18122463 -0.2750136
0.28010368 0.1296079 -0.2536506 -0.23919621 0.6153921 -0.15274625 -0.560331 0.042147424
-0.16969971 -0.29265583 -0.11947717 0.13253921 0.0064390376 -0.4040078 0.07029335 -0.07517997
-0.6700504 0.046766285 -0.59482634 -0.21808784 0.031327996 0.1810235 -0.29726377 -0.28806275
0.01990586 -0.07587789 -0.32000104 -0.10504144 0.11313745 -0.44659707 -0.29513162 -0.13905497
-0.23181178 0.31724334 0.3299284 0.18915246 0.35000584 -0.016625535 -0.022004474 -0.06911659
-0.06251575 -0.33404094 0.11994736 -0.3212536 0.27168036 0.009154783 -0.20284544 0.09749646
0.2694201 0.011037279 0.0023015784 0.15035352 -0.012633144 0.23419313 -0.4225778 -0.0043812096
-0.27952385 -0.2604573 0.06573265 0.10876147 0.4160599 -0.08874915 -0.095616445 -0.45331135
-0.31876436 0.015334173 0.067458965 0.20702414 0.1805796 0.109819435 0.10587241 0.28480718
0.25419506 0.21266948 0.15352811 -0.23410313 -0.1887321 -0.33107278 -0.27938002 0.10091896
0.0960415 0.19441125 0.2665507 0.2751116 -0.18811084 0.1610338 -0.5348101 -0.21356846
-0.44302955 0.045841962 0.13060652 0.009586321 -0.40731633 -0.2200345 -0.090278484 0.07320392
-0.050234552 -0.21316576 -0.17010364 0.2626608 0.057826456 -0.03593187 -0.119547494 0.028704206
-0.06380088 0.35929522 0.33129236 -0.07580683 0.048637684 0.028817683 -0.102807514 -0.16670525
0.14565092 -0.0018046653 0.060211215 0.35386327 0.2908555 -0.2505994 -0.05579272 -0.14075619
-0.13223152 -0.14379057 0.05159888 0.19444658 -0.3331629 0.030964363 0.036599696 0.26532087

conv2.bias f4 [10]
00000000: eecf e13b 7dfc 48be 2071 2b3d 2b02 a43d
00000010: 3e25 34be ad8a 193c 8965 eebc 2d1c ea3d
00000020: ac60 e9bd 1ebc 923b
0.006891242 -0.19627567 0.04185593 0.08008226 -0.17592332 0.009371442 -0.02910115 0.11431155
-0.11395392 0.0044779917

conv3.weight f4 [10, 10, 3, 3]
00000000: 0fba f83d ed38 22be 732f 37bd 2b26 b9bc
00000010: 345d 37bf e996 4abe e84b 6d3e b76c 9b3e
00000020: c02a 28bd e133 26bd c343 27be 9997 48be
00000030: d027 e6bd efb5 74bd aed4 a4be 9b38 b8bd
00000040: 704c 293e 4b4d c1be 6778 bdbd 5f1c a13e
00000050: 4cf2 313d 628c 6bbe 714d cf3b 8dba a53d
00000060: cacb 50bd 27b8 00bf 1d04 9ebe 24e8 b7bd
00000070: ab7c 5bbe 71b9 0fbf 7a02 d3be ada5 73be
00000080: 0a5f 65be 53d3 dd3d c563 2a3d 5cff 993c
00000090: 21e7 0a3e bf5e 1b3e 4332 003c 4b4a 223e
000000a0: 7b06 533d ee12 01be 8583 c73d 807e dd3d
000000b0: 4b7c a9bd 55ff 94be 5380 7bbe fb1d 8f3e
000000c0: ec0f 49bd 1165 afbd 84a8 1dbd cc37 5d3e
000000d0: b69a 8c3d d427 963d 407c 8a3e 573f d63d
000000e0: 09b2 91bc 5252 88be 5a43 68be c76a 67bb
000000f0: dd3c e2be 41d2 1dbe ff0f 4dbd c00b bf3e
00000100: 622a aa3e 2358 463e f1db e13c ead7 49be
00000110: 8d27 503e 427b 72be 07de 3abe e52b 1f3d
00000120: cf44 823e 1207 573e 37a0 703e c70d 2a3d
00000130: 789b 3e3e e5df 18bd 01be 06bf a45a 22bf
00000140: c28f 87be b773 23be cbd5 063e 8025 b63e
00000150: 83a9 4dbe b2a2 953e 56b8 d43d c93b 103d
00000160: 6243 7b3e 01fc d8bd 4dfe 363e 94b7 c93e
00000170: 5c25 d83e 21bf 283e e395 fc3e 30c2 043f
00000180: 230f d33c a545 8e3e 17a8 683e ab41 abbc
00000190: 541c f4bd e797 2ebe fb44 17be 3717 04be
000001a0: 55fb 09be e575 2abd 9702 bfbd 07c0 f83e
000001b0: 4452 0bbd c38a 8fbd 403d a8be bf3e 2e3e
000001c0: bf77 8cbe b6c1 89be b077 8e3d 2593 1b3d
000001d0: 4f58 d2bd 27d6 0a3e b863 e93c daba 4a3e
000001e0: 76df 813e 7223 d23c cabb 8d3e 7f61 a33d
000001f0: b3eb 6f3e 5089 c03e 8ec2 283e c4cf 963d
00000200: cc04 bbbd 2fb3 e13e 69cd cebc 0e48 223d
00000210: 3d4e 7b3e 9517 d0bd 817a b53c cc2b ee3d
00000220: cbd2 9b3d 33b2 973e cd6d 5d3b a539 5fbd
00000230: 1c1a 393d 2fd5 67bd e9b7 943d 3906 a3bd
00000240: 0791 b33e 491b d53e 7462 003e e0db 3c3e
00000250: 5563 0e3e d334 ce3d 69f3 b33c 530a 81be
00000260: 8127 8cbd 952b b23e 52f0 763e 26d2 7fbe
00000270: 96db 743e 3c66 353e 4dc0 9b3c f423 5a3e
00000280: 867e 5b3e d79c b3bd fbb4 9ebe d628 59bd
00000290: 8e82 803c c3ac ecbd 5ce7 f73c c5cd 343e
000002a0: 997a 06be b268 063e 272f 623e 8e29 1d3d
000002b0: bfac eebd db27 b63c be1b 1fbe f558 5a3e
000002c0: ab8b 7d3d 9878 fc3d 6ef4 c13d 5eea d2bd
000002d0: e9e3 883d 6253 f2bd d93a eabc f15f a9bd
000002e0: d54a 31bc 0e9f 77bd 7ec7 bfbd 3b85 87bb
000002f0: 8ced 9d3c 5072 85bd 6239 62bd 8e22 b9bd
00000300: c20d 91bd 96c9 b23d 218e 85bc 1b79 e3bd
00000310: 608d 97bd aedf 9bbd 9211 debd d170 853b
00000320: af45 cbbd e0d6 90bb d024 7bbd dcc2 dbbc
00000330: 65e2 38bd 4d8c 6dbd 248e 97bd 92da 4bbd
00000340: e398 ac3b e161 bdbd cd7c 673d 25e0 603d
00000350: 89cd dbbd 4df1 b2bd 9dee 8fbc 65ee ebbc
00000360: bf85 9ebd db89 d8bc 8880 ffbd 475b 1a3d
00000370: 8dc8 debc 6711 e7bc 7db3 b4bd cf22 863d
00000380: 8ce5 d43c 6cf8 4cbd 569f 11bc c875 8f3c
00000390: df60 903b df87 c73c e62f e1bd f3cd bdbc
000003a0: dae2 3cbc 5bb4 e03c 5005 01be 6408 67bc
000003b0: ac95 d7bc ce6c 803d 39c3 173d 3919 1abd
000003c0: 751a 1abd 7c82 5e3d c183 1b3d 81b7 b9bd
000003d0: ac9c 24bb 5354 95bc ea23 36bc 9a98 0abe
000003e0: ae20 54bd 8adb 7b3c 7445 19be 423f fbbd
000003f0: 7067 bdbd ac70 89bd 6d7e 5f3a afc7 193c
0.12144863 -0.15842028 -0.044722985 -0.022601208 -0.7162659 -0.1978413 0.23173487 0.3035638
-0.041056395 -0.04057682 -0.16334443 -0.1958908 -0.112380624 -0.059743818 -0.32193512 -0.08995172
0.16533065 -0.37754282 -0.092514805 0.31466958 0.043443963 -0.2300277 0.0063263704 0.08092222
-0.0509756 -0.50280994 -0.30862513 -0.08979824 -0.21434276 -0.56142336 -0.41212827 -0.23793669
-0.22399536 0.108313225 0.041599054 0.018798523 0.13564731 0.15172862 0.007824483 0.15848653
0.051519852 -0.12604877 0.09741882 0.108151436 -0.0827566 -0.29101053 -0.2456067 0.2795256
-0.04908745 -0.08564199 -0.038490787 0.21603316 0.06865446 0.07331815 0.2704792 0.104613
-0.01778509 -0.26625305 -0.22681943 -0.0035311447 -0.4418706 -0.15412237 -0.050064083 0.37313652
0.3323546 0.19369559 0.027570697 -0.19711271 0.20327587 -0.23679832 -0.18248759 0.03886022
0.25443122 0.20998791 0.23498617 0.041517045 0.18613994 -0.037322897 -0.5263367 -0.63419557
-0.26476866 -0.1596211 0.13167493 0.35575485 -0.20084195 0.2922569 0.10386722 0.035213266
0.24537423 -0.10594941 0.17870446 0.39397871 0.42216003 0.1647916 0.49333104 0.51858807
0.025764054 0.2778751 0.22720371 -0.020905336 -0.11919466 -0.17050134 -0.14772408 -0.12899481
-0.13474782 -0.04161634 -0.09326666 0.48584005 -0.034014 -0.070088886 -0.3285923 0.17016123
-0.2743511 -0.26905602 0.06956422 0.037982125 -0.1027075 0.13558255 0.028489932 0.1979784
0.253658 0.025651667 0.27682334 0.0797758 0.23429756 0.3760476 0.16480467 0.07363847
-0.09131774 0.4408202 -0.025244432 0.039619498 0.24541564 -0.10160748 0.022153141 0.11629447
0.07608565 0.29628143 0.003378737 -0.054498333 0.045190915 -0.056599792 0.072616406 -0.07960171
0.35071585 0.4162238 0.12537557 0.1844325 0.1390508 0.10068669 0.021966653 -0.2520319
-0.06843472 0.34798875 0.24115112 -0.24982509 0.2391189 0.1771478 0.019012595 0.21302778
0.21434984 -0.08770149 -0.30997452 -0.05301746 0.015687253 -0.11556389 0.030261688 0.1765662
-0.13132705 0.13125876 0.220883 0.038369708 -0.116540425 0.022235801 -0.15537927 0.21322997
0.061900776 0.12327689 0.094704494 -0.10298608 0.066840954 -0.1183231 -0.028592514 -0.082702525
-0.010821064 -0.06045442 -0.09364222 -0.0041357554 0.01927831 -0.06515944 -0.055230506 -0.09039794
-0.07082702 0.08729856 -0.016303124 -0.111070834 -0.07400012 -0.07611023 -0.10843195 0.0040722867
-0.099254005 -0.0044201463 -0.061314404 -0.026826315 -0.04513778 -0.05799513 -0.07400158 -0.04976899
0.005267249 -0.092471845 0.056515504 0.05490126 -0.10732562 -0.08737431 -0.017569834 -0.028800199
-0.07740354 -0.026432922 -0.12475687 0.037684705 -0.02719524 -0.02820654 -0.08823297 0.06549608
0.025988363 -0.0500416 -0.008888086 0.017512217 0.004406079 0.02435678 -0.10995464 -0.023169493
-0.011528695 0.02742975 -0.12599683 -0.014101122 -0.026316486 0.06270753 0.037051413 -0.03762171
-0.037622888 0.05432366 0.037967447 -0.09068204 -0.0025117798 -0.018228685 -0.011116961 -0.13534775
-0.05178898 0.015372166 -0.149679 -0.12267925 -0.09248245 -0.067109436 0.0008525614 0.009385987

conv3.bias f4 [10]
00000000: 2516 233d 4d8d ccbd c552 20be 825e a53e
00000010: 3180 d83d 20ec 9b3e b7f4 293d 2623 2d3e
00000020: 8434 163e 9233 00be
0.03981604 -0.099878885 -0.15656574 0.32298666 0.105713256 0.30453587 0.041493144 0.1690794
0.1466847 -0.12519673

conv4.weight f4 [10, 10, 3, 3]
00000000: a78c 503e 9d6b 983e 32bf 533e 1eeb bb3e
00000010: 039f dd3e 6f72 b83e 3da1 e43e 397c 243e
00000020: 112c 4e3e 6113 66be b00b 433d 8e38 813e
00000030: 5d62 b33d c6ed 21bd e657 893d 6f19 b6bd
00000040: af22 013e 8424 25bd 8359 4b3b 41c7 a3bd
00000050: a005 0abe ec4c 9abd 2b85 673d 0913 9ebd
00000060: 5629 b7bd abfb dd3d 1cb9 813d 6679 8fbe
00000070: ea51 7b3d ebf2 34bd 04e6 61bd 3327 48be
00000080: e342 d7bd 2e44 a03d 4d3f a8bd 0ac9 f7bd
00000090: d878 92bd 18b0 a8be 034f 99be 6e6b 9c3d
000000a0: 9554 183d 573f a63b 6ef8 8d3e e2cd bd3e
000000b0: ec69 de3e 90e8 b0be 2b71 42be ef88 aa3d
000000c0: c2b0 8bbe 80e9 19be 4a45 81be e8f2 bcbe
000000d0: 1649 92be 5038 a0be f0c6 40be 6785 743d
000000e0: 7bb5 ad3d 80cf 993c c4db 553d 8849 103e
000000f0: 61e8 813d f735 253e ad89 243e df4d 03be
00000100: 1b4f 923d 7b98 30be b401 5fbe cb17 67bd
00000110: 66ef aabc 8164 283e fe02 1abd 8fca 8c3d
00000120: f13a 33be 3d41 9cbe 76ed 4d3d 5bb9 0e3c
00000130: 76f6 08be d730 203d d1d4 90be c7bd c2bd
00000140: fc8a 1dbe c9b4 1ebd d7f4 0cbc 1dd2 f4bb
00000150: adff 93bd ca71 30bd d23f e73d 7ec7 35bd
00000160: 61b7 f9bc ab98 453d 8eb2 94be 7868 53be
00000170: 2d3e 183c 869c 4dbe 2bcc 0bbd 16e2 82bd
00000180: 4a2f 31be 54d6 2fbe 7cf4 9dbd 85d7 92bd
00000190: 4473 c43d d50b a6bd 5152 a0bc 5a70 073e
000001a0: b887 813d 0d03 a5be 34b1 07bf 8fa3 62be
000001b0: 035a ba3c bcea 0fbd 232b 21bc 90de ef3d
000001c0: bb8d ac3d df7b 133d 6a7a 4cbd 8253 dd3c
000001d0: 9cf3 babd c389 89be 035f a4bd 337a 85be
000001e0: ca8e 1c3e 8492 7fbe e70e 85be 7658 08bd
000001f0: 5271 4bbe f3ce 5ebf 6300 6bbb b63f ce3d
00000200: d925 b0be 0be1 40bd a475 223b 1a3d 1d3e
00000210: ad52 47bd 287f acbe 0f0d cbbd 7718 11be
00000220: c43d b8be 918a 5dbd 68cd 193c f77f 093e
00000230: 40b7 133e 17f7 343e 17c1 ab3d 56ab c53d
00000240: c99c ba3a 887e 4cbd a5ff a8bd 5500 68be
00000250: 18cd 17be c5cc 10be 64a2 30be 0986 89be
00000260: c4d0 bbbe b93b 6dbe 0e0e 2b3e 4cc1 80bd
00000270: ffed 00bc 8ebd 303e 0cdb 4c3d 4b62 843e
00000280: 874f 413e a620 02be 0fcf bebd 7f1c b3bd
00000290: adf3 443e 5902 2d3e 5fec e7bd cda9 fb3d
000002a0: 0981 1e3e fcc7 c0bd bad3 bbbd dc01 b53d
000002b0: cf64 44bc 7878 a43d 10f6 7ebd 5796 9c3d
000002c0: b3b2 0c3d f244 d23d 21d2 a7bd b4fd 583c
000002d0: 5d7d 003e 666c 063e 5b20 173e 5a6a 4c3e
000002e0: a494 463e 41a7 5c3e 006e fd3d 061b c23d
000002f0: 9385 f53e e736 f3be 4f90 94be 36a4 d4bd
00000300: d40e 51bd 61b9 83bd 7d06 f7bd 21ec c7bd
00000310: 6864 19be 2beb 5cbd 8d4e c03c 574b 84bd
00000320: 3cbe 873d fe09 aebc 1971 09bc 5dfc 09bd
00000330: 41a9 963d e8be 61bd 007b ff3c 16f0 03be
00000340: 0947 44be c449 bcbd 95ed 1bbc 7c8a 04be
00000350: 275b b5bc c91b 483b 5d92 473d c68f c13d
00000360: 20da b33e 2d6e 303e e649 6abd adbf ca3c
00000370: 34dc 38bd e9ac c23d e1a6 d8bd f78d c5be
00000380: ab73 33be b936 4e3e c431 1fbe 722b 90be
00000390: b546 d13e 8722 7e3d 1b03 3ebe 01af d33d
000003a0: 49ce d33d 4cd2 303e 581a e4bd e2f9 253e
000003b0: 0a88 643e c06b 603e 9665 e1bd 9be7 44bc
000003c0: 027a 273e ba2b 64be 2365 a03c 0161 5f3e
000003d0: 77cd e43d 1a4e a33d 1c42 383e 2156 0ebe
000003e0: 5a25 1a3e 3508 54be 4e1f c2be a9a5 b03e
000003f0: b85e 42be bc2f eb3c 8805 8d3b 719d abbe
0.20366155 0.29769602 0.20678404 0.36702818 0.4328538 0.36024806 0.44654265 0.16063012
0.20133997 -0.2246833 0.047618568 0.2523846 0.08758996 -0.0395334 0.067062184 -0.0889157
0.12610887 -0.040318027 0.0031028695 -0.07996989 -0.13478708 -0.07534203 0.056523483 -0.077184744
-0.08943431 0.108390175 0.06334135 -0.28022307 0.061357416 -0.044176977 -0.055151 -0.19546203
-0.105108045 0.07825504 -0.08215199 -0.12098892 -0.07151955 -0.3294685 -0.29943094 0.07637678
0.03719004 0.0050734687 0.277286 0.3707114 0.43440187 -0.3455243 -0.18988483 0.08326899
-0.27283293 -0.1503048 -0.25248176 -0.36904073 -0.28571385 -0.31292963 -0.18825889 0.059697535
0.0848188 0.018775702 0.052211538 0.1409055 0.06343151 0.16133867 0.16068144 -0.12822674
0.071439944 -0.17245667 -0.21777993 -0.056419175 -0.020866107 0.16444589 -0.03760051 0.068745725
-0.17502953 -0.30518523 0.05027529 0.008711184 -0.13375267 0.039109077 -0.28287366 -0.095088534
-0.1538505 -0.03874663 -0.008603296 -0.0074713365 -0.07226501 -0.043077268 0.1129147 -0.044379704
-0.03048295 0.0482413 -0.29042476 -0.2064532 0.009292168 -0.2007924 -0.034130257 -0.06390779
-0.17303196 -0.17171603 -0.07712647 -0.07170013 0.09592298 -0.081077255 -0.019570502 0.13226452
0.063247144 -0.3222889 -0.53004766 -0.22132705 0.022747999 -0.03513597 -0.009836945 0.11712372
0.084254704 0.036006805 -0.04992143 0.027017359 -0.09128496 -0.26862916 -0.080259345 -0.26069793
0.15288845 -0.24958235 -0.25987932 -0.033287488 -0.19867447 -0.8703453 -0.0035858385 0.10070746
-0.34403875 -0.047089618 0.0024789358 0.1535534 -0.04866283 -0.33690763 -0.099146 -0.14169489
-0.35984623 -0.054087225 0.009387352 0.13427721 0.14425373 0.17672382 0.08386438 0.0965182
0.00142374 -0.049925357 -0.08251885 -0.22656377 -0.14824331 -0.14140613 -0.17249447 -0.26860073
-0.36682713 -0.23167314 0.1670458 -0.062868685 -0.007869243 0.1725981 0.050013587 0.25856242
0.18877994 -0.12707767 -0.09316837 -0.087456696 0.1923358 0.16895427 -0.11324381 0.12288246
0.1547891 -0.09413144 -0.09171243 0.08838245 -0.011986925 0.0803079 -0.062246382 0.076458625
0.03435011 0.102670565 -0.08194376 0.013244081 0.12547822 0.13127288 0.14758436 0.19962445
0.1939264 0.21548177 0.123744965 0.094778106 0.47953472 -0.47502825 -0.2901635 -0.10382883
-0.05103953 -0.064318426 -0.120617844 -0.09761835 -0.14979708 -0.05393521 0.023474956 -0.064596824
0.06628081 -0.021244999 -0.008388781 -0.033687938 0.07356501 -0.055113703 0.03118658 -0.12884554
-0.19167723 -0.09193757 -0.009517093 -0.12943453 -0.022138191 0.003053414 0.048723567 0.09451251
0.35127354 0.17229529 -0.05719938 0.024749601 -0.045131877 0.09505636 -0.105787046 -0.38584873
-0.17524593 0.20138063 -0.15546328 -0.28158146 0.40874258 0.062044647 -0.18555872 0.10336114
0.1034208 0.17267722 -0.11137837 0.16208604 0.2231752 0.21916103 -0.11005704 -0.01201811
0.16355136 -0.22282305 0.019579476 0.21814348 0.11172002 0.07973881 0.17993969 -0.13900043
0.15053311 -0.20706256 -0.3791451 0.3450139 -0.18981445 0.028709285 0.004303638 -0.33518556

conv4.bias f4 [10]
00000000: fa38 f83d cf7c d73e 99c1 06bd 168d 853c
00000010: 390f 2a3e 26d5 943d a1ef 77bc 0316 e23d
00000020: b045 bcbb 2007 6e3e
0.121202424 0.4208741 -0.032899473 0.016302627 0.1660737 0.07267217 -0.015132816 0.11039355
-0.005745612 0.23244905

norm.weight f4 [10]
00000000: 3f13 2e3f 3728 4e3f 054f 473f 5a30 323f
00000010: 74d0 493f 55cf 593f 5dd0 3f3f 3623 683f
00000020: d3fe 543f edaf 8d3f
0.6799812 0.80530113 0.7785495 0.6960503 0.788337 0.8508199 0.7492731 0.9067873
0.8320133 1.1069313

norm.bias f4 [10]
00000000: 7ec1 32bf ee68 3fbf c22b 41bf 26ca 2fbf
00000010: 2488 3fbf ba3e 6abf 9f7b 69bf f859 68bf
00000020: 6051 7cbf 21f8 91bf
-0.69826496 -0.74769485 -0.75457394 -0.6866783 -0.7481711 -0.91501963 -0.91204256 -0.9076228
-0.9856167 -1.1403848

norm.running_mean f4 [10]
00000000: 1f83 eabe 5c83 53bf 88b8 a9be 2e4e ebbc
00000010: 5b89 34bf 6708 6fbf 8f8f 0b3f 3414 4bbe
00000020: f69c 763f 212f 57bf
-0.45803162 -0.82622313 -0.331486 -0.028723802 -0.7052209 -0.93372196 0.5451593 -0.19831926
0.96333253 -0.8405629

norm.running_var f4 [10]
00000000: 5579 353e 6d98 443e d3f3 5f3e cb6a 8b3e
00000010: 76d4 873e 4945 9d3e 36d8 483e e00a d33e
00000020: 4283 8c3e ebb9 733e
0.17722066 0.19198771 0.21870355 0.27229914 0.26529282 0.30716923 0.19613728 0.41219234
0.27443892 0.23801391

fc1.weight f4 [50, 810]
00000000: e80c b73d cd96 0b3c 33d6 0fbd 3fa4 a7bd
00000010: 7094 b2be ebda a1be a2a1 41be 4c2a 5abe
00000020: c6eb 273e 57a2 93be 653a 48be cc24 5dbe
00000030: 6709 cdbe c22b f6be e15a e6be c8d3 22be
00000040: dcc0 d5bd e447 cf3c 55f6 8bbe 6f48 763e
00000050: 01c8 4d3e 081b adbe 0f5e c2bd 6556 fa3d
00000060: ee37 c2bd 1e4b 02bd ae4c f83c c9c3 c4bd
00000070: 496a c33e 3f6d 2c3d 29f9 d3be de68 083d
00000080: b460 5a3e 98ba e53d 9807 3bbe c37b 213d
00000090: cc8e 8e3d 5393 9c3e 634e 473d ec3a 3dbe
000000a0: 76a1 07be 1921 01bf 564d a4be 701e 01bf
000000b0: 199a 02be bc26 e6bc ae04 04be 94cf af3e
000000c0: 0b41 363d e3f3 25be 24f5 91bd 9bc5 e03d
000000d0: e058 06be 5992 92bd 8c55 12bd ae72 a9be
000000e0: 4a29 543d 2882 aa3d b048 92bd 47ec 89bd
000000f0: 3f25 6abc 599b 5d3e ff4b fb3d a039 38be
00000100: 3a27 24be c4b0 603e d656 bb3d 1959 3ebd
00000110: 2ec7 6fbe 79f3 97bd afe6 ac3d 53f6 063e
00000120: fb2f 59bf c040 36bf ab68 b63d 9767 783d
00000130: 5114 febd 1b70 273d d3fa d1bd 704c 99bd
00000140: cc77 99be a0a9 92bc 3b89 9bbc a46c 173d
00000150: 2702 5d3d 365b 333e dd18 dcbd f39f edbd
00000160: 79a1 95bb 1be8 043e 46e7 193e 71d8 d3bc
00000170: 978c 03bd 34e1 a33e 977d 953e 3bd5 873d
00000180: daaf eabd 98c1 353d 165d 723e af28 363e
00000190: a8b4 263d 0f1b 37be f744 b63d 0f83 9d3e
000001a0: 975d 4e3c a615 3dbe bf2a 31be 3a01 b3bc
000001b0: 22e4 c4bc 93b2 ec3d 75a9 01bf 65e9 12be
000001c0: c2c1 973d 568d 93be e722 e6bd f362 ec3d
000001d0: 3b26 243e d283 d3be ec9f 9bbe daa7 c53b
000001e0: 88ac dfbe df0a fcbe 3eb2 bbbe f011 8e3d
000001f0: e591 433d ad70 cabe bb15 623e 550f e13e
00000200: 0519 843e ad94 0dbe 9a9a b9bd 14ef 02be
00000210: af04 78be e100 fbbb f87e 95bd 4d23 b93e
00000220: 5edf a93e c592 543e 9bd6 7c3d 2445 013e
00000230: 9395 183e 0ee8 2d3d 0f93 a83e 0e4f e53d
00000240: cc5b 633e 5527 b63d 93bd a03d f5da 873d
00000250: a241 efbd 9da7 a7bd 53fc b7bd a58e 3fbd
00000260: 7966 3bbd 9037 cebd 710d 02be eedd 223d
00000270: b16b 8cbd 999f 08be 205e be3d 32a0 c93c
00000280: 165c 483e f127 b43d b7b4 61bd 65ad fcbd
00000290: 3c7a 91bc 9b07 7dbe 9665 9fbe ebd5 f5be
000002a0: 9220 ab3a 2b0b 8a3e 6d6b 7c3e c234 d8be
000002b0: 8d69 4bbe 766e 0a3e e42f 5d3e 1632 62be
000002c0: 8c76 a7be ab1f 0dbe 4559 103e c2b8 473e
000002d0: d9c8 0dbe 3a3e 35be 284c 4ebe daf7 ac3d
000002e0: f077 d83d d2a3 313d b40d 1a3e 2990 623b
000002f0: 5598 073d 7e18 023e f0c2 493e 1edc 153c
00000300: 3c54 08bd 53db 2a3e d2ca 233e 0af1 303d
00000310: 91ab 563d ed0e 373e ec90 ac3e f5c1 5d3e
00000320: 6a7a d93c 95c6 12be 4496 7c3d d860 6a3e
00000330: 799d 90be fe13 8ebd b0fb a13e fc31 96be
00000340: 15f1 9cbe e443 7ebe b759 d6bd 05ef 17be
00000350: 025f 23be 34f5 09bf c4d7 80be 06ac 06be
00000360: 13f9 32bc 18cd d7be 5f3c 643e e699 963e
00000370: e689 b53e af82 873d 9932 803e fa6e f13d
00000380: 81d2 103e 0ac6 6e3e 0421 b53d 0fa4 913e
00000390: 8929 1abd 6f6d 063d 21a4 8cbd 21f7 ae3a
000003a0: 4570 073f 7160 b43e d555 03bf 5c67 21bc
000003b0: bc90 52be 8293 b8bd b0b8 4dbe 8bbc b7be
000003c0: a6fe 6dbe 5ad9 1e3e 30d6 b33e a9c7 7a3d
000003d0: 1485 58be f1ab 8ebe 1a8b b7be 88b6 f0bd
000003e0: 6c30 813d 09d0 7c3d 47b5 023d 7cf7 7bbe
000003f0: 15be 4a3e 786c 6ebe 812e 59bf e3f5 a03c
0.089380085 0.00851984 -0.035116386 -0.08185624 -0.34878874 -0.31612334 -0.18909314 -0.21305197
0.16398534 -0.28834793 -0.19553526 -0.21596068 -0.40046236 -0.4808026 -0.4499121 -0.159011
-0.10437176 0.025302835 -0.27336374 0.24051069 0.20095827 -0.33809686 -0.094905965 0.1222351
-0.09483324 -0.03180992 0.030310001 -0.096076556 0.38167027 0.042096373 -0.41401032 0.033303134
0.21325952 0.112172306 -0.18264616 0.03942467 0.0696083 0.3058115 0.04865874 -0.18479508
-0.13245186 -0.5044113 -0.32090253 -0.5043707 -0.12754096 -0.028094642 -0.1289241 0.34338057
0.044495624 -0.16206317 -0.07126835 0.1097519 -0.1311984 -0.0715682 -0.035726115 -0.33095306
0.05179719 0.083256066 -0.0714277 -0.067345195 -0.014291107 0.21641292 0.122703545 -0.17990732
-0.16030589 0.2194243 0.09147422 -0.04647169 -0.23415825 -0.074194856 0.08442437 0.13179903
-0.8483884 -0.7119255 0.089066826 0.060645666 -0.12406219 0.040878396 -0.10252919 -0.074852824
-0.2997421 -0.01790315 -0.018986335 0.036968842 0.05395713 0.17515263 -0.1074693 -0.116027735
-0.004566368 0.12979166 0.1502963 -0.025860043 -0.0321165 0.32007754 0.2919738 0.06632467
-0.11459322 0.04437408 0.23668322 0.17788957 0.04069963 -0.17881416 0.08899873 0.30764052
0.012595556 -0.1846529 -0.17301463 -0.02185117 -0.024034563 0.11557498 -0.50649196 -0.14346845
0.07410003 -0.28818768 -0.11237126 0.115423106 0.16030209 -0.41311508 -0.30395448 0.0060319724
-0.43686318 -0.49227044 -0.36659425 0.06937015 0.047746558 -0.3953909 0.22078602 0.4395701
0.25800338 -0.13826247 -0.09062691 -0.12786514 -0.24220537 -0.007660017 -0.07299608 0.36159745
0.33178228 0.20759113 0.0617281 0.12624031 0.14900808 0.042457633 0.32924697 0.11196719
0.22202986 0.08894221 0.078486584 0.066335596 -0.1168244 -0.081862666 -0.08983674 -0.046766896
-0.045752022 -0.100691915 -0.1270044 0.03976243 -0.06856478 -0.13342132 0.09295297 0.02461252
0.19566378 0.08796681 -0.055103984 -0.1233776 -0.017758481 -0.24709933 -0.3113219 -0.4801477
0.0013055971 0.26961645 0.24650355 -0.4222775 -0.19864483 0.135187 0.216003 -0.22089419
-0.32707632 -0.13781612 0.14096554 0.19504073 -0.13846149 -0.17699519 -0.20146239 0.084457114
0.10569751 0.04336912 0.1504429 0.003457079 0.03310426 0.12704656 0.19703269 0.009146718
-0.033283457 0.16685228 0.15995339 0.043198623 0.052409712 0.17876787 0.33704317 0.2165602
0.02654763 -0.14333566 0.061666742 0.22888505 -0.28245142 -0.06937407 0.31637335 -0.2933501
-0.3065268 -0.24830586 -0.104663305 -0.14837272 -0.15954211 -0.53889775 -0.25164616 -0.13151559
-0.010923642 -0.42148662 0.22288655 0.2941429 0.3545677 0.06616723 0.25038603 0.11788745
0.14142801 0.23317733 0.08844188 0.2844548 -0.037637267 0.032819208 -0.068672426 0.0013348797
0.52905685 0.3522983 -0.51302844 -0.009851303 -0.20563024 -0.0901251 -0.20089984 -0.35886034
-0.23241672 0.155126 0.3512435 0.061225567 -0.21144515 -0.27865556 -0.35848314 -0.11753565
0.06308064 0.061721835 0.03191116 -0.24606127 0.19799073 -0.23283565 -0.84836584 0.019648498

fc1.bias f4 [50]
00000000: 0866 223d bdaa db3e 6b38 ae3e c68b 403e
00000010: 4055 edbb 324a 44be 9d6c b23e ac3d 373f
00000020: e706 c83d b535 103f 8cc9 11bf ca9e 093e
00000030: b2f4 213e 9f37 8b3d 0eee 183f 06d0 943d
00000040: 505d 183f 19c9 603f f88f c23e f017 5b3e
00000050: a986 3b3f 9137 e93e 6b6c 733e dc27 9fbd
00000060: ae99 823e 5641 d73e 3821 ff3c 7267 1e3e
00000070: 7556 223e 262e 87bd c9ad b23e 23f0 d03c
00000080: a135 ad3e a6f2 b53e 7252 42bd b005 c8bc
00000090: 597d 863e 38ec c1be c730 06bd 1e01 253e
000000a0: 216f 353f c4a3 94bd 5f41 d1bd eb8c 0d3e
000000b0: 7b61 dabc 1c0b 023e d950 1b3e fc82 1a3f
000000c0: c929 1b3f b21f 023f
0.039648086 0.429037 0.34027418 0.1880332 -0.0072428286 -0.19168928 0.3484849 0.7157848
0.097669415 0.5633195 -0.5694816 0.1343948 0.15816 0.06797718 0.5973824 0.0726624
0.59517384 0.8780685 0.38000464 0.2139585 0.7325235 0.45550206 0.23771827 -0.077712744
0.25507873 0.42042035 0.03114377 0.15469149 0.15853293 -0.06600599 0.34898213 0.025505131
0.33829978 0.3553669 -0.047441907 -0.024416775 0.26267508 -0.37875533 -0.03276136 0.16113707
0.70872694 -0.07257798 -0.10217547 0.13823287 -0.02665781 0.1269955 0.1516756 0.60356116
0.60610634 0.50829613

fc2.weight f4 [7, 50]
00000000: bfcd 0cbe 952c 92bd 6e69 67be ed5a 953e
00000010: 125b 13be 03f9 623e 36ef 96be 4a76 7cbe
00000020: e7cb 15bd af03 01be 8419 a53e 0bcc abbe
00000030: 9bcb 16be 6343 54bd 6285 26be c329 84be
00000040: 39de 453e be44 2c3d 1703 f13d 2287 ac3e
00000050: 27dc 553c 25f6 14be 71d7 763c df3d ba3d
00000060: 3c09 c8be 097f 38be 8b8b b3bc 00d7 aebc
00000070: 8565 123f a991 d03d 7d3d 2bbe 5283 acbe
00000080: 25d0 b3be f25b 8fbb 4159 16be d6c2 0e3d
00000090: de37 14be 6a95 09bc 76f4 45bd 6dc1 8cbd
000000a0: 6b0e 973e 858b 163c d5cf a13c 8dcb c13e
000000b0: d2c3 46bd 94eb bbbc 0e6c 88be 3ec9 6a3d
000000c0: be4d 3abe 96ab 113f 581b f1bd 140c 7e3e
000000d0: fa96 e2bd 90cc 173b b3c9 c2be 7bb5 0b3f
000000e0: 0786 be3d 3a0c 4ebe 8d26 1d3d 7a9c 8cbe
000000f0: ae67 cebe 12c3 1abf 6e9f 3cbf 8783 b03e
00000100: 034f 61be 1302 473f 5c22 67bd 0541 7bbe
00000110: 5b0f 4ebf a083 44be ac6e 4abd 9759 e4bd
00000120: 31e4 aa3d 2fd6 8b3d ac02 c2be 5f48 b2be
00000130: 6b8f 17bf eb30 ebbe f8d3 42bd 57e5 a63d
00000140: c318 2cbe 0b12 723e 69a7 09bf 87bf 92be
00000150: ff47 c03c c311 c93d ac88 dabd c4eb 273f
00000160: f832 ca3d c298 7ebb 1b61 dbbd f486 a93c
00000170: 43bb a73c 6969 a8be f900 cf3d dff4 a5be
00000180: 8413 63be 1ac5 4b3e d460 07bc 07fc 0fbf
00000190: f1f5 b2be f3a9 433e 74e8 ecbd 1357 e6bd
000001a0: 5540 283e 07b1 013e ba41 cb3c 4f9c dbbc
000001b0: 426f 9cbe 7e6c c73b 2a8d 263e 60e2 10be
000001c0: 1e68 5f3e 5bb4 3ebd 0d34 9bbe c7b3 9bbe
000001d0: faaf 45bd 47ee 2a3e 0452 4d3d 1288 9a3e
000001e0: 6e2a 303c 9b20 49bd 4365 f53d 8977 ecbd
000001f0: 2314 20bd 8065 333e ae5a 2bbe 648d babe
00000200: e567 92bd a611 abbd c9b5 65be 1bd4 3b3e
00000210: 5357 5e3e b5df eebd dc4e af3e 8fa1 4f3d
00000220: bf97 6dbe 2cbc 55be 90bf b0bd db59 bb3e
00000230: 0a97 7fbd 8fa8 a4bd c672 f1bc e061 17be
00000240: 3852 d4bd 9628 603e c95a 0abe 4819 24be
00000250: c70f d1bd bab2 dabe 3258 f43d b51c 143d
00000260: 6590 abbe e637 94be f855 cd3e e54d c6be
00000270: 7440 e53d 5d8b 923e 80f6 813e 7834 b0be
00000280: cdd1 ba3d 2a19 3fbf d142 103d 6517 773e
00000290: c9d2 bc3e aa68 08be abb2 8bbe 1e0b babe
000002a0: 53c3 883e 7823 c0be c54f 1c3d 44f7 103e
000002b0: 4951 2dbe 72f0 80bd ef11 c8be be2e 08be
000002c0: c083 083f 85d2 65be 6a2b 4cbe 824b 773d
000002d0: dfb9 043e a1ad b0be ba4b 88be 3a6f 5ebe
000002e0: e326 c6be d069 f6bd d34e cf3e e2e9 6a3e
000002f0: 7ddf aebd 3494 46bd 9358 0fbd 08b1 c93c
00000300: 0aae 20bd f993 52be 74d6 8bbd e2ef 843d
00000310: a5e0 dbbd 1614 03bf c6c9 a5bd 1104 13be
00000320: afb6 9ebe 9c67 123e e917 a13d b770 94be
00000330: d5e9 adbe 1d9c d1bd 55b2 60bc a9d5 0ebe
00000340: 05c3 80be 082e b83e 36c2 ffbd 1537 e63e
00000350: e89b a3bd 4101 e8bd 8f7d 83be eccf 12be
00000360: e197 f93d 928b 803d 55ed 263d 62b9 25be
00000370: 2535 823b 6d62 503e b953 f73d a622 c2bb
00000380: 14f8 eabe 2f17 983e 08c6 8bbe 2eb2 e23e
00000390: a498 c9be 2da4 2f3d 0a29 20be 88db f23d
000003a0: 6638 10bd 13c8 803d aaf7 cbbd 2167 543d
000003b0: 8502 ccbd 9e64 d5be bd74 9c39 9a83 74be
000003c0: ed42 033e 02b2 cebd 721b 9ebd 98d6 1ebe
000003d0: 3b76 f4bd dce2 1bbe 982b 4cbe 4003 d0bd
000003e0: 89e6 3fbe 2c8f 50be cfac f23e 7248 2cbe
000003f0: 16f7 0dbd 9433 b03e 4960 2abe f252 2dbe
-0.13750361 -0.071374096 -0.22598812 0.29170933 -0.1439021 0.22165303 -0.29479378 -0.24654499
-0.03657141 -0.12599061 0.3224603 -0.3355411 -0.14726107 -0.051822077 -0.16261819 -0.25813112
0.19323052 0.042057745 0.117681675 0.33696848 0.013052977 -0.14547022 0.015066014 0.09093832
-0.39069545 -0.1801721 -0.021917125 -0.021342754 0.57186157 0.101840325 -0.16722675 -0.3369394
-0.3511974 -0.0043749744 -0.14682485 0.03485378 -0.14474437 -0.0083974395 -0.04832884 -0.068728305
0.29503188 0.0091885375 0.019752422 0.3785061 -0.048526593 -0.02293948 -0.2664494 0.057320826
-0.18193719 0.56902444 -0.117727935 0.24809295 -0.11063953 0.00231627 -0.3804451 0.5457379
0.093029074 -0.20121852 0.038366843 -0.27463132 -0.40313476 -0.60453904 -0.7368077 0.34475347
-0.22002797 0.7773754 -0.056429252 -0.24536522 -0.8049218 -0.19190836 -0.04942195 -0.111499004
0.08344305 0.06827962 -0.37892663 -0.3482084 -0.59203213 -0.4593576 -0.04756543 0.08149212
-0.16806321 0.23639695 -0.5377107 -0.2866175 0.02347183 0.09817841 -0.10670599 0.65594125
0.09873003 -0.0038848375 -0.10711881 0.020694233 0.020475036 -0.32892922 0.101076074 -0.32413384
-0.22175413 0.19899407 -0.008262832 -0.5624394 -0.34953263 0.19107799 -0.115677744 -0.11247077
0.1643079 0.12665187 0.024811614 -0.026807932 -0.30553633 0.0060859313 0.16264787 -0.14148855
0.21817061 -0.04655872 -0.3031315 -0.30410597 -0.048263527 0.16692458 0.050127044 0.30181938
0.0107523035 -0.04910336 0.11982205 -0.11546237 -0.039081704 0.17519188 -0.1673381 -0.36435997
-0.071487226 -0.083529755 -0.22432627 0.1834263 0.21712999 -0.116637625 0.34239852 0.050691184
-0.23202418 -0.20872563 -0.08630288 0.36591992 -0.0623999 -0.080399625 -0.029473674 -0.1478343
-0.103672445 0.21890482 -0.13511194 -0.16025269 -0.102080874 -0.42714483 0.119308844 0.03616019
-0.33508602 -0.28948897 0.4010465 -0.38731304 0.11193934 0.2862195 0.25383377 -0.3441503
0.091220476 -0.7464777 0.03521997 0.24130018 0.36879566 -0.13321176 -0.2728475 -0.36336607
0.2671152 -0.3752706 0.03816201 0.14156824 -0.16925539 -0.06295861 -0.39076182 -0.1329908
0.53326035 -0.22443588 -0.19938436 0.060374744 0.12961529 -0.34507468 -0.26620275 -0.21722117
-0.38701543 -0.12031901 0.40489826 0.22940782 -0.08538721 -0.04848118 -0.03499658 0.024620548
-0.039228477 -0.2056426 -0.06828013 0.064910665 -0.10736207 -0.51202524 -0.08095126 -0.1435702
-0.30998752 0.14297336 0.078658886 -0.28992245 -0.33967462 -0.10234854 -0.013714393 -0.13948692
-0.25148788 0.3597262 -0.12488215 0.449639 -0.07988721 -0.11328364 -0.2568173 -0.14337128
0.12187172 0.06276621 0.04075368 -0.16183999 0.0039736205 0.20350046 0.12076516 -0.0059245406
-0.45892394 0.29705188 -0.27299523 0.44276565 -0.39374268 0.04288118 -0.15640655 0.118582785
-0.035210036 0.06288161 -0.099593475 0.051856164 -0.09961418 -0.41678327 0.00029841615 -0.23878327
0.12818499 -0.10092546 -0.077200785 -0.15511549 -0.11936613 -0.15223259 -0.19938505 -0.1015687
-0.18740286 -0.20367116 0.47397467 -0.1682451 -0.034659468 0.3441435 -0.16638292 -0.16926172

fc2.bias f4 [7]
00000000: 4ad7 433e cba0 06bd 3533 66be e94e 463e
00000010: 731d 973d 2b03 a1be 845e 8d3d
0.19125095 -0.032868188 -0.22480471 0.1936604 0.07378664 -0.3144773 0.06902793

localization.0.weight f4 [8, 1, 7, 7]
00000000: 68f7 1cbe 32ba e7bd 893f 72bb cb30 44be
00000010: 4b33 ad3d b4b5 d5bb 588a ec3d 9757 14bb
00000020: 82c7 d93c 927c c93d 78af ca3c 3537 96bc
00000030: d294 32bd e3e2 2b3d 7a55 5bbe 80d1 20bd
00000040: 0bbd ff3c 26e6 093e b413 9dbc 5cba 063e
00000050: 84bf b73c 9753 debd 058d cf3d c2a7 e23d
00000060: 03bb 933d 4170 003d 9023 dbbd 9483 853c
00000070: 0ea1 d3bd 0be5 4b3d dce9 423c ef72 983d
00000080: 4ee5 4fbe 1147 53bb 218c 1e3e a869 81bd
00000090: 4624 bb3d a728 123d 6d2a 0dbd 428b ee3d
000000a0: e8c5 943d 1c03 1fbe 605f 87bd 22cd 2e3e
000000b0: 2a96 5e3c 7207 3c3d 9950 81bc 992e 7cbe
000000c0: 4bbd 12be 061e c63b be3a 553e ac23 933d
000000d0: da45 3cbe bd63 90be a559 25be 06c1 91be
000000e0: 3bfa 35be 7924 5abe 756b 8bbe e4c3 e9bd
000000f0: 4179 843e 28e1 993e 83b8 573c 3b9d 50be
00000100: b147 c8bd 18ac ebbd 4cd0 41be e9f8 91bd
00000110: f7d6 393e 58d1 a83d 44fd 133e d3a2 a0bd
00000120: 3401 2e3c 01d7 933d 8e63 c43c 1367 49be
00000130: ef27 98bd 5063 1e3c 378b 433d abfc d13d
00000140: 1a0b 9dbd ccce a6bc de8d dcbd 8b7b 963d
00000150: ed11 9f3d 7f46 c4b9 d90b aa3d 0700 32bd
00000160: ea2b e93c fda8 1dbd 6dc1 803d 7f46 89bc
00000170: 40ac d73d caeb c93d 12d7 ca3d eb3c 363e
00000180: 5f4a 723d b09a 433e b9db 133e ae94 b9bd
00000190: 04c5 34bd 3cee fdbc 990e ed3d 7949 2cbe
000001a0: 0679 35be b46e d8bc 08a1 743c 91bb 54bd
000001b0: c697 0b3e 6b70 ce3a 36b2 9bbd a86b 87bd
000001c0: 9b16 6c3e 82ae d73d d413 43bd b97a 253e
000001d0: 3af2 22be 0822 a5bd 8736 f1bd 754f 8d3d
000001e0: 1a9b c63d 2432 1d3d 6866 88bd f581 c5bd
000001f0: 2148 edbc 59e1 a6bd f17a a03d 74e7 3b3e
00000200: 9763 4cbc 9923 16be a73a 11bc 3075 acbd
00000210: 0656 613d 0dcf 7fbe 6138 9fbd 5b2c f43d
00000220: b397 ce3d 5da2 2abe 8343 ea3d 27e0 9a3e
00000230: 0932 edbd d7c2 7cbd 2108 87bd 837a 69bd
00000240: 3b0e 06be 44dd 6f3e 4c09 943d 84aa c53d
00000250: 371d 193d 6275 9a3d 2d50 bd3d 62f7 94bc
00000260: cff0 6e3c d3f5 393b e442 b8be c239 64bc
00000270: 67f2 20be d8cc d33c d9a8 3d3b 9d72 203d
00000280: c00d e8bd 705c 4cbe 7a8a 95bd 4dc6 c53d
00000290: eba8 6ebc 7b1e 1f3e 0cad 933d 43ca e4bc
000002a0: 7372 a13b 8b6f 063e 4d28 c23d 0e52 febd
000002b0: d8cb 3c3c 5040 da3d 1ba2 cf3d af09 bc3c
000002c0: 03a1 09bd edc4 03bd 16c7 b23c ca51 8cbe
000002d0: f0e7 12be ace3 f5bd 04ad 073d 06ea f23d
000002e0: 244e 043d 8093 06be a293 98bd 02cc 4b3d
000002f0: d107 273e 39c7 82bd c346 a5bd eb84 3f3e
00000300: 787a e6bc df65 f23d 57fe 343c cb78 513d
00000310: a977 12be 26c4 92be b47c 98bd 4d38 5d3d
00000320: a6bb 89bc c9e1 a4bd 81af 033d 358a d53d
00000330: 6e97 41bd 9c24 6dbe 8bdf 9fbd e499 7cbd
00000340: 8dc4 683d ba6b 053e 27b2 10bd bbe9 f83c
00000350: 77c1 abbe af7f fbbd e157 8c3d ef5c 073e
00000360: 53d5 173c ec8e 983d fb96 59be e1b7 86be
00000370: 95cb 8cbd f935 013e b5df a7bc 83ed 3d3d
00000380: 0d27 fa3d 284a 2d3d d4d3 86be 0cd2 873c
00000390: 79e3 87bc 1ca3 d73c c1bc 0c3e 15ae 113b
000003a0: 1509 6abd 47e5 93bd 4460 b0bd 0229 523d
000003b0: c37e 14be 2d70 823e eb25 b73d e5f1 10bd
000003c0: 58c9 dfb9 4336 a33d 20c5 a5bd fcd7 5e3e
000003d0: f06b 993e 95fe e43b 2db8 2bbe c2a0 4f38
000003e0: f849 dcbd 2fef 543c 3cad 9cbc fead 92bc
000003f0: 9d05 6a3e 3d98 25bd a390 babd 491d 74bd
-0.15328753 -0.11314811 -0.003696414 -0.19159238 0.08457049 -0.006521905 0.115498245 -0.0022635215
0.02658439 0.09838213 0.024741873 -0.018336872 -0.043598957 0.041964423 -0.21419325 -0.039262295
0.031218072 0.13466701 -0.019174434 0.13157028 0.022430189 -0.10855787 0.10134319 0.110671535
0.07213404 0.031357054 -0.107001424 0.016298093 -0.10333453 0.04977898 0.011896577 0.07443797
-0.20302317 -0.0032238404 0.15483142 -0.063189805 0.09137778 0.0356833 -0.03446429 0.11647655
0.0726431 -0.1552853 -0.06609988 0.1707044 0.013585607 0.045905538 -0.015785502 -0.2462715
-0.14330022 0.0060460595 0.2082319 0.07184538 -0.18386021 -0.28201094 -0.16147478 -0.28467578
-0.17771237 -0.21302976 -0.2723042 -0.11414316 0.2587376 0.30054593 0.01316655 -0.20372479
-0.09779299 -0.11507434 -0.18927115 -0.07127554 0.18148409 0.08243054 0.14452082 -0.07843556
0.010620404 0.07218743 0.023973253 -0.19668226 -0.07429492 0.009667233 0.047740187 0.10253271
-0.07668133 -0.02036228 -0.107692465 0.07347783 0.07767091 -0.00037436557 0.08303041 -0.043457057
0.028463323 -0.038491238 0.06286893 -0.016757248 0.10530901 0.09859426 0.09904303 0.17796676
0.059152957 0.19101977 0.14439286 -0.090615615 -0.0441332 -0.030997388 0.1157505 -0.16824903
-0.17721948 -0.026419975 0.014930971 -0.05193669 0.13632116 0.0015750056 -0.076023504 -0.06612331
0.23055498 0.105313316 -0.04762633 0.16160096 -0.15912715 -0.080631316 -0.117779784 0.06899921
0.09697552 0.038377896 -0.066601574 -0.09643928 -0.028965058 -0.081484504 0.07835949 0.18350011
-0.012474916 -0.14662017 -0.008864081 -0.08420789 0.05501368 -0.24981327 -0.07774425 0.11922523
0.10087528 -0.16663499 0.11438658 0.3024914 -0.11581809 -0.06170925 -0.06593347 -0.057001602
-0.13091366 0.2342425 0.07228336 0.09651664 0.037381377 0.0754192 0.09243808 -0.018184368
0.01458378 0.0028375282 -0.35988533 -0.013929786 -0.15717469 0.025854513 0.0028939752 0.039171804
-0.113307476 -0.19957137 -0.07301803 0.096569635 -0.01456664 0.15538971 0.072107404 -0.027928477
0.0049269735 0.13128488 0.09480343 -0.124179944 0.0115232095 0.10656798 0.10138341 0.022953836
-0.03360082 -0.032170225 0.021823447 -0.2740615 -0.1434629 -0.120063156 0.033123985 0.11861043
0.032301083 -0.13142204 -0.07450034 0.049755104 0.16311575 -0.06385655 -0.08070137 0.18703048
-0.02813457 0.118358366 0.0110469675 0.051140588 -0.14303459 -0.28665274 -0.0744566 0.05400877
-0.01681311 -0.080508776 0.032149795 0.104267515 -0.047263555 -0.23158497 -0.07806309 -0.0616702
0.05682807 0.13029376 -0.03532615 0.030384889 -0.3354604 -0.12280213 0.06852699 0.13219045
0.009267169 0.07449135 -0.21249 -0.26312163 -0.06874768 0.12618245 -0.020492414 0.046369087
0.122144796 0.04230705 -0.26333487 0.01657965 -0.01658796 0.026322894 0.13743879 0.0022229005
-0.057137568 -0.072214656 -0.08612111 0.05130864 -0.14501481 0.25476208 0.08942779 -0.03538694
-0.00042683887 0.07969334 -0.08094239 0.21762079 0.29965162 0.0069883564 -0.16769476 4.9502363e-05
-0.10756296 0.012996479 -0.019125573 -0.017905232 0.22853704 -0.04042839 -0.091096185 -0.05959824

localization.0.bias f4 [8]
00000000: f02c 26bf 496e 1fbd ba1b 31bf 796e 30bf
00000010: 6bf1 d7bd 6ed3 4fbe 54cf 52be 0c24 4dbd
-0.6491232 -0.038923535 -0.6918293 -0.6891857 -0.10544094 -0.20295498 -0.20586902 -0.050083205

localization.3.weight f4 [10, 8, 5, 5]
00000000: e99c 843c e4c6 e93c abc1 b1bd 70fc 47bd
00000010: 9f20 66bd c768 75bc 303d aabd a933 843c
00000020: c8c4 dbbc 6b24 f93c a485 e5bc 2828 21bd
00000030: 585a eebb 1c5d 013d cd64 0d3d 98b4 4ebd
00000040: 8c3e 19bd 8c78 0fbd a909 123d 7cac 933c
00000050: b3e9 a9bd db81 613c 60cb 72bc f00c 443d
00000060: 437d 9e3c f2d1 90bc 78e0 983c c733 d0bd
00000070: 7ebd 68bd 16eb f1bd 1086 a4bd f759 0b3c
00000080: 023c 12bd 3301 d1bd 9ec0 24bc 16b5 e83c
00000090: 2f19 07bd d40f 143c d12c 0dbd 6141 cebd
000000a0: ee2e b4bb 3c3f 183d 68a6 663c 60f6 aabd
000000b0: 0d5d 7dbd 95d7 8ebd 4664 14bd 3bc7 b8bd
000000c0: 5013 79bd 56ec 2bbd b2fa 26bd 1d47 2b3d
000000d0: a8c3 36bd 26f7 343b c89b 05bd 2915 94bd
000000e0: b09e c7bb da1b 9fbd 716c a9bc 27ec b9bd
000000f0: 1082 cdbd 62b0 383d 2a0d 70bd 014d 163c
00000100: a399 133d ae98 183d 14ba ecbc f768 bd3c
00000110: 183e 0ebd 0271 b7bc 7731 e9bc 757c aabd
00000120: 15df 51bc 59bf 9cbd 508f 07bc e539 173d
00000130: f0ef 46bd 1cf3 84bd c41d 60bd a8f1 e5bb
00000140: 34e0 853c 889c 27bd 8cf1 23be 866a 04be
00000150: 8ef5 1ebd a171 26bd c806 3b3d 04c7 03be
00000160: 4e63 cfbd 6c0b aebd 0de3 543d 7f7c 28bb
00000170: e87a fbbd c5e9 a0bd 2d42 adbd c704 2d3d
00000180: 7e93 2b3d 9b5f 1c3c 5f09 ecbd b4d3 6abd
00000190: 0a3f cdbd f71f 6fbd 2139 3abc bfb4 c6bc
000001a0: 6568 ddbb 89ad f5bd 89d9 683d 4a0d 6f3d
000001b0: d37e 443c cb41 73bd a5b0 afbd 75b1 9cbd
000001c0: 658d 00bd fae7 0d3b 3d89 efbc 1127 b1bd
000001d0: 9034 1abc 2bc4 49bd 11c5 7bbd db33 89ba
000001e0: e869 62bc 1ecd 99bd 110a 013d 1978 a6b9
000001f0: b9f4 17bd 7925 4cbd 9452 b1bd eb48 cdbd
00000200: 3376 b8bd dd45 953c 412b f43b 4f8e 983d
00000210: cd40 a4bd 5006 cfbd fcdd afbd 9d35 093d
00000220: 2ae9 1bbd 672e 1dbd 89fd 8abc 3900 a83c
00000230: 4d80 0f3c 09bd d1bd ec96 89bc 3d33 32bc
00000240: cddc 323b ea79 32bd ebaf e6bc f3d6 8ebd
00000250: 3799 e9bc 892c 8ebd da77 043d b7a1 0e3d
00000260: f6dc c83c ec0a 9abd 0055 06bc 4b72 7c3b
00000270: 7bc9 173d b17a adbc a5f9 3b3d e4dc 24bd
00000280: fdc1 f6bd 8524 94bc 9d3a 143d 6834 f83c
00000290: 0fc5 07bd de18 0cbd ceba 2fbd 02a4 89bc
000002a0: 4ff1 5b3d 0c95 57bd 2a0f 09be 2576 e6bd
000002b0: 9a52 02bd 1d82 c83c 28cb c2b9 12ee bf3c
000002c0: a95c 4abb 2e6c 96bd 8166 30bc 0e9c b6bd
000002d0: 2f90 7e3c 4474 60bd 8953 aebd dbfd e4bc
000002e0: e93d 3e3d 3089 0a3d 96a3 60bd bdc1 19bb
000002f0: 3258 b8bc af68 acbc 7065 a23c e626 c5bd
00000300: 313b c7bd 3ef7 7fbd 44cb e7bd 538c a7bc
00000310: 9f6b 903c c15f ecbb 1f39 f6bd 202c c7bd
00000320: cf3d d2bd e907 34be b20b 723e 3d1b 843c
00000330: d6b4 47bd b62e af3c a011 6e3d 6a80 153d
00000340: 2496 1fbd 7e4e 68bd 0efb 29be 8e43 06be
00000350: 336d 0d3e 7094 98bc 37f3 e7bd 58f9 f1bc
00000360: bb7f 343d 2f80 013e 113f 5fbd a08a 93bd
00000370: c3b5 0c3d a986 0a3d dce8 8ebc 4738 ccbc
00000380: 794f 11bd 05c3 5ebd db10 65bb c511 05bc
00000390: af9a 9c3b f4fe 5bbe 4fcd 6abe e53a 0b3c
000003a0: 2061 273d bc25 4fbc 5a34 dbbc 08d7 91bc
000003b0: 983a e03d cb09 7cbe 454c 35be d47d 84bc
000003c0: 8f46 7fbd ff28 b2bd 9add 473e 21f5 d03d
000003d0: 3d81 a03c 05f4 bebd f42b 32bc db71 e13d
000003e0: 2045 633d 161a 2e3d 112d 6bbe 4953 3f3d
000003f0: 0615 65bc 4b16 b93d 1173 903c f9fb 7fbe
0.016188102 0.028537221 -0.08679517 -0.048824728 -0.056183454 -0.014978594 -0.08312452 0.016137915
-0.026827231 0.030412873 -0.028017826 -0.039344937 -0.0072739534 0.031582937 0.03451996 -0.050465196
-0.037413165 -0.03502707 0.035653744 0.018026583 -0.08296528 0.01376387 -0.014818996 0.0478639
0.019346839 -0.017678235 0.018661723 -0.10166126 -0.05682134 -0.11812417 -0.08033383 0.008505336
-0.03570176 -0.10205307 -0.010055689 0.028406661 -0.032983 0.009036977 -0.03446657 -0.10071064
-0.0054987585 0.03716968 0.01407776 -0.083477736 -0.06185632 -0.06974713 -0.03622844 -0.09022375
-0.060809433 -0.041973434 -0.040766425 0.041815866 -0.044620186 0.0027613132 -0.032619268 -0.072305985
-0.006091915 -0.07768984 -0.020681592 -0.090782456 -0.10034573 0.045090087 -0.058606304 0.009173633
0.03603519 0.03725498 -0.028897323 0.02312134 -0.034727186 -0.022392754 -0.02846597 -0.083245195
-0.012809535 -0.07653684 -0.008273914 0.036920447 -0.048568666 -0.06491682 -0.054715887 -0.007017333
0.01634226 -0.040920764 -0.16010112 -0.1293126 -0.038808398 -0.04063571 0.045660764 -0.12868887
-0.10126363 -0.08498272 0.051974345 -0.002570897 -0.12279302 -0.07857088 -0.08459888 0.042240884
0.041888706 0.0095442785 -0.11525225 -0.057330802 -0.10021789 -0.058380093 -0.01136616 -0.024256108
-0.0067568296 -0.1199599 0.056848083 0.058362283 0.011993128 -0.059388917 -0.08578614 -0.07651035
-0.031384844 0.0021653161 -0.029240245 -0.086500295 -0.009411946 -0.049259346 -0.061467234 -0.0010467725
-0.013819195 -0.07509826 0.03150374 -0.00031751467 -0.03709862 -0.049840424 -0.08658329 -0.100236736
-0.0900692 0.01822179 0.0074514453 0.07449018 -0.08020172 -0.10108626 -0.08587262 0.033498395
-0.03806416 -0.03837433 -0.016966598 0.020507919 0.008758617 -0.10241134 -0.016795598 -0.010876474
0.0027292252 -0.043573298 -0.028160056 -0.06974592 -0.028515441 -0.06942088 0.03234086 0.034822192
0.024519425 -0.075216144 -0.0081989765 0.0038520272 0.03705738 -0.021176668 0.045892376 -0.04024972
-0.12048719 -0.01808382 0.03618871 0.030298427 -0.033146914 -0.034203403 -0.04290276 -0.016801838
0.053696927 -0.052632377 -0.13384691 -0.11253003 -0.031817056 0.024476105 -0.00037153927 0.02342895
-0.0030877984 -0.073448524 -0.010766626 -0.08916484 0.015537306 -0.05479838 -0.08512027 -0.027953079
0.04644576 0.03382224 -0.054843508 -0.0023461424 -0.022502992 -0.02104601 0.01982376 -0.0962656
-0.09728087 -0.062491648 -0.11318067 -0.020452654 0.017629443 -0.007213563 -0.12022614 -0.09725213
-0.10265695 -0.17581142 0.23637274 0.01612627 -0.048756443 0.021384578 0.058122277 0.03649942
-0.038961545 -0.05671548 -0.16599676 -0.13111708 0.13811187 -0.018625468 -0.113256864 -0.029537842
0.044067126 0.12646554 -0.054503504 -0.07204175 0.03435303 0.03381983 -0.01744502 -0.024929179
-0.03547618 -0.054385204 -0.0034952674 -0.008121912 0.004779182 -0.21483976 -0.22929882 0.008497928
0.04086411 -0.012643274 -0.026758362 -0.01780273 0.10948676 -0.2461311 -0.17704876 -0.01617328
-0.06232315 -0.08699226 0.19518128 0.10203005 0.019592876 -0.09323887 -0.010874737 0.11008044
0.055485845 0.042505346 -0.2296641 0.046710286 -0.013982063 0.09037455 0.017632993 -0.24998464

localization.3.bias f4 [10]
00000000: 22c2 23be 65e4 1abd c85c bcbd f4d6 b6bd
00000010: 9847 eebd e471 d1bd 2d7f 8bbb b49f febd
00000020: 0a02 dbbd 6f16 14be
-0.15992025 -0.03781547 -0.09197384 -0.08927718 -0.11634749 -0.10226801 -0.004257104 -0.12432805
-0.10693748 -0.14461683
